beginner_source/onnx/image_classifier_model.onnx (onnx, 261105 bytes, 10 tensors)

conv1.weight f4 [6, 1, 5, 5]
-0.16913585 -0.08481789 -0.16871528 0.19477855 0.046012044 -0.14878018 -0.100998044 -0.06546362
-0.14718328 0.15110941 -0.017619347 -0.03761802 -0.1282628 0.0056510926 -0.11300719 -0.07927401
0.07804451 0.14401369 -0.071601726 -0.1926668 -0.19867317 0.059925914 0.070462726 -0.012926984
-0.069828056 0.030539608 -0.03394277 0.00089814665 0.05699828 0.053284433 -0.085563995 0.022800708
-0.0612504 0.16519175 0.14130239 0.062283445 0.04525304 -0.04858136 -0.18175617 -0.044737935
0.09042263 0.031403065 0.020782972 -0.029512167 -0.029056907 -0.08746135 0.13418722 0.1565861
-0.1581825 0.08907626 0.025895715 0.17277427 -0.17878683 -0.113854885 -0.067627095 0.1055254
0.01150074 -0.08089864 0.19250543 0.11786542 0.11679321 0.048429728 -0.13138664 -0.13954306
-0.093437456 0.15580943 0.008452726 -0.15809464 0.011379934 0.014556694 0.074278615 0.18845081
-0.0690326 -0.025907898 0.040921092 0.06799286 0.17587776 -0.060314845 0.13716963 0.01335609
0.02702558 0.02058947 -0.15221734 -0.013692546 -0.16949268 0.1741797 0.15592837 0.15671673
-0.19689234 0.14064328 -0.09740346 -0.0977005 0.17128444 -0.1750851 0.10454466 0.057220936
-0.15359686 -0.15343483 -0.16091351 -0.041005205 -0.14941955 -0.14532593 0.054676127 0.012945056
-0.19596665 -0.15249558 -0.08984971 0.05978322 0.10426948 -0.0503603 -0.14248888 -0.008679748
-0.17211781 -0.07098327 -0.06563526 -0.019161273 0.18967454 -0.1644034 0.14763156 0.10969188
-0.15822284 -0.018057395 -0.08841868 0.1539038 -0.17683935 -0.05320039 0.11393862 0.15579449
0.041080426 -0.06633885 -0.10521378 -0.17030428 0.19410315 -0.121226005 0.046299648 0.0044728518
-0.082856655 -0.13401018 0.04470849 0.06812711 -0.12862253 0.10366402 -0.18319035 0.085386395
0.15985273 0.12157681 -0.13618849 0.11645138 -0.19324747 -0.005812812
00000000: f331 2dbe 00b5 adbd b3c3 2cbe 0774 473e
00000010: 2077 3c3d d559 18be 10d8 cebd ca11 86bd
00000020: 37b7 16be 6dbc 1a3e 7356 90bc 5a15 1abd
00000030: 5357 03be cd2c b93b 5070 e7bd 6a5a a2bd
00000040: cdd5 9f3d 5378 133e eda3 92bd 724a 45be
00000050: fb70 4bbe e074 753d c34e 903d b3cb 53bc
00000060: 0302 8fbd 332e fa3c 9307 0bbd 9a71 6b3a
00000070: 0777 693d c740 5a3d 2d3c afbd 8dc8 ba3c
00000080: b3e1 7abd 0728 293e 93b1 103e ed1c 7f3d
00000090: 405b 393d 40fd 46bd 4a1e 3abe 203f 37bd
000000a0: 802f b93d 80a0 003d 0d41 aa3c 80c3 f1bc
000000b0: c008 eebc f01e b3bd 6068 093e 1b58 203e
000000c0: 98fa 21be 9d6d b63d 4023 d43c bdeb 303e
000000d0: e513 37be c02c e9bd 1380 8abd b31d d83d
000000e0: 9a6d 3c3c 30ae a5bd 2520 453e 6d63 f13d
000000f0: 4731 ef3d 405e 463d 388a 06be 60e4 0ebe
00000100: 235c bfbd 828c 1f3e 4d7d 0a3c 90e3 21be
00000110: e772 3a3c 337f 6e3c 631f 983d 40f9 403e
00000120: f760 8dbd cd3c d4bc e09c 273d d73f 8b3d
00000130: 4d19 343e b30c 77bd 3276 0c3e 80d3 5a3c
00000140: c064 dd3c 40ab a83c ddde 1bbe b356 60bc
00000150: 7d8f 2dbe 2a5c 323e b0ab 1f3e 5a7a 203e
00000160: 259e 49be cb04 103e 777b c7bd 3317 c8bd
00000170: 3065 2f3e 8249 33be 831b d63d 8060 6a3d
00000180: 7f48 1dbe 051e 1dbe 83c6 24be 13f5 27bd
00000190: 7001 19be 52d0 14be 13f4 5f3d 8017 543c
000001a0: 7bab 48be cd27 1cbe 2003 b8bd 40df 743d
000001b0: 3d8b d53d 9a46 4ebd 9be8 11be 8035 0ebc
000001c0: a73f 30be ad5f 91bd c76b 86bd 1af8 9cbc
000001d0: 0b3a 423e 5d59 28be ba2c 173e 23a6 e03d
000001e0: 2b05 22be 1aed 93bc da14 b5bd f598 1d3e
000001f0: 6015 35be a7e8 59bd a758 e93d 9788 1f3e
00000200: f343 283d aadc 87bd 537a d7bd 3f64 2ebe
00000210: fac2 463e 5745 f8bd b3a4 3d3d 0091 923b
00000220: c0b0 a9bd f739 09be 4020 373d 3a86 8b3d
00000230: a0b5 03be cd4d d43d 4096 3bbe 10df ae3d
00000240: 6fb0 233e 43fd f83d ff74 0bbe 107e ee3d
00000250: aae2 45be 6779 bebb

conv1.bias f4 [6]
-0.13491654 -0.029767347 0.044434477 -0.12509978 -0.18369089 0.031311847
00000000: 9027 0abe a7da f3bc ed00 363d 281a 00be
00000010: 7719 3cbe da40 003d

conv2.weight f4 [16, 6, 5, 5]
-0.0036042384 0.069816284 -0.047519784 0.06718252 -0.053786553 0.020469112 -0.05182103 0.009211387
0.023203302 0.043768756 -0.0663967 0.0464415 -0.04507199 -0.037586004 -0.050920468 0.013667132
-0.04084523 0.080570765 -0.079823546 0.0055850046 0.0037788847 0.0813271 0.0009985979 -0.050754815
0.07162138 0.02689372 0.06868239 -0.06341021 -0.026275162 0.07367755 0.034070175 -0.008326425
0.068485856 0.038375773 0.07756637 -0.040842187 0.046851665 -0.0334014 0.029292312 0.07386697
0.0026176902 0.0074910764 0.035869323 0.0027541332 -0.055570044 0.05867785 0.06818417 0.016100928
-0.020640615 -0.04993387 -0.023892982 0.050111543 0.02423914 0.068037316 -0.02551042 -0.0013539643
-0.06840115 0.023767838 0.0050036185 0.034489438 0.016612818 -0.00971327 -0.022177517 0.07672182
-0.079943836 -0.01714828 0.04296466 0.05849161 -0.02165683 0.079774134 -0.00065489224 0.07041454
-0.0023978907 -0.06429863 -0.029424433 -0.031446654 -0.032300718 -0.05836861 0.058087178 0.016474439
0.021292664 0.03939992 -0.020287829 -0.07586987 0.010289233 -0.068165734 0.04622348 -0.043601155
-0.011366311 -0.060586102 0.05372496 -0.049163774 0.017826699 0.053645954 0.008467093 0.036784176
-0.05533394 -0.0350991 -0.010345025 -0.08125202 0.014915303 0.055700112 -0.0022775372 0.036479015
0.06432207 -0.039531905 0.024250196 0.048572157 -0.076740555 0.0023456225 -0.06308131 0.028853802
-0.019832294 0.052248247 0.0316443 0.0583555 -0.028085623 0.010849829 0.054903433 -0.07298336
0.016680816 -0.005102812 0.07128957 -0.018683685 -0.057200104 -0.04563537 0.07874884 0.0051420666
0.079865985 0.010250183 0.0019909276 0.051598877 0.034240693 0.030360172 0.041485943 0.03773477
0.060864884 0.00028943233 -0.063400306 -0.029843045 0.06893331 -0.0575731 -0.07751966 0.04064125
0.03136936 -0.03137297 -0.012850557 0.00024746193 -0.025978867 0.036841728 -0.079790115 0.03792391
0.069562696 0.030850073 -0.052483592 0.02527889 -0.022806305 -0.0065958663 0.00017801412 -0.054082148
-0.029265787 0.0018245254 0.045317505 0.008808579 -0.058711536 0.009031348 -0.07127638 0.014810689
0.07495109 0.05476555 0.011348257 0.061349522 0.013700381 0.044728886 -0.0444641 -0.0058001904
-0.08096885 0.017304493 0.041163065 0.061725073 0.0177588 0.043121144 0.058743823 0.06129945
0.0726238 0.043684404 0.029192584 -0.0139525635 -0.06771146 0.046004664 -0.052131176 0.056587737
0.077539265 0.036327835 0.004727677 0.023870837 0.06262695 -0.073552795 0.022856852 -0.012617773
0.026635015 -0.047250994 0.020336017 0.067164406 0.022137407 0.04138424 -0.0596921 0.01673796
0.05434172 0.060346913 0.0343456 0.029324763 0.06862224 0.080894835 -0.06954395 -0.03146642
0.0028324383 -0.03498997 -0.020865047 -0.023571983 -0.07393103 -0.071229585 -0.019071922 -0.06262221
0.06655293 0.022702187 -0.06390649 0.050679866 0.028168464 -0.07587277 -0.07779553 0.06552325
-0.05741604 -0.009099793 0.0075623346 -0.07602087 0.01356023 0.02892252 -0.0054271775 -0.0059504644
-0.0131035 -0.011762666 -0.005338905 0.034702953 -0.0266725 -0.047687713 0.042865932 -0.038941447
-0.02742197 0.029398609 0.07494021 0.00605284 0.06850617 0.015518501 -0.062766016 -0.07145233
00000000: 1635 6cbb d7fb 8e3d 1ba4 42bd fd96 893d
00000010: 4a4f 5cbd d7ae a73c 4a42 54bd 5beb 163c
00000020: da14 be3c de46 333d fefa 87bd 7139 3e3d
00000030: 689d 38bd c8f3 19bd fb91 50bd 1bec 5f3c
00000040: 544d 27bd 4902 a53d 877a a3bd 6a02 b73b
00000050: 2aa7 773b d38e a63d 63e3 823a 48e4 4fbd
00000060: 3bae 923d 3850 dc3c 5aa9 8c3d 36dd 81bd
00000070: 023f d7bc 41e4 963d 2b8d 0b3d 8f6b 08bc
00000080: 5042 8c3d ea2f 1d3d 1edb 9e3d 234a 27bd
00000090: 88e7 3f3d e8cf 08bd 6ef6 ef3c 9147 973d
000000a0: 8e8d 2b3b b477 f53b b6eb 123d b07e 343b
000000b0: 6a9d 63bd 2f58 703d 24a4 8b3d 18e6 833c
000000c0: 8216 a9bc 7587 4cbd 37bb c3bc c341 4d3d
000000d0: 2991 c63c 2657 8b3d 3afb d0bc 8177 b1ba
000000e0: e715 8cbd c5b4 c23c 65f5 a33b cc44 0d3d
000000f0: 9b17 883c 6824 1fbc a0ad b5bc 5420 9d3d
00000100: 98b9 a3bd 8d7a 8cbc b6fb 2f3d e694 6f3d
00000110: aa69 b1bc 9f60 a33d 13ad 2bba 8035 903d
00000120: ee25 1dbb 00af 83bd 820b f1bc 35ce 00bd
00000130: c24d 04bd ec13 6fbd d2ec 6d3d 67f5 863c
00000140: f46d ae3c cf61 213d a932 a6bc aa61 9bbd
00000150: 2c94 283c 7a9a 8bbd d554 3d3d 2097 32bd
00000160: c439 3abc 2229 78bd b40e 5c3d f45f 49bd
00000170: 4c09 923c dcbb 5b3d 90b9 0a3c 01ab 163d
00000180: d7a5 62bd 13c4 0fbd 2e7e 29bc 7667 a6bd
00000190: 515f 743c cd25 643d bc42 15bb 056b 153d
000001a0: 4abb 833d 35ec 21bd 59a8 c63c 99f3 463d
000001b0: 272a 9dbd 04b9 193b c630 81bd cf5e ec3c
000001c0: 5677 a2bc 4202 563d 749d 013d 2d06 6f3d
000001d0: d213 e6bc 7bc3 313c 6ce2 603d 4d78 95bd
000001e0: 35a6 883c 7d35 a7bb 4400 923d 870e 99bc
000001f0: a84a 6abd 27ec 3abd 1247 a13d c87e a83b
00000200: c790 a33d 62f0 273c 397a 023b 5859 533d
00000210: f83f 0c3d e5b5 f83c 2aed 293d c68f 1a3d
00000220: 754d 793d f3be 9739 05d8 81bd 6779 f4bc
00000230: e82c 8d3d c5d1 6bbd a1c2 9ebd 7077 263d
00000240: 287d 003d f280 00bd 258b 52bc c7bd 8139
00000250: a2d1 d4bc 5ae7 163d 0069 a3bd 1a56 1b3d
00000260: e376 8e3d 4bb9 fc3c 09f9 56bd ad15 cf3c
00000270: 4ad4 babc 2322 d8bb 4da9 3a39 3e85 5dbd
00000280: cebe efbc ea24 ef3a d99e 393d dc51 103c
00000290: 827b 70bd 38f8 133c 5af9 91bd 88a8 723c
000002a0: f57f 993d d751 603d 0aee 393c a349 7b3d
000002b0: 9077 603c a335 373d fd1f 36bd 860f bebb
000002c0: ffd2 a5bd 27c2 8d3c 9a9a 283d 6ed3 7c3d
000002d0: e77a 913c cc9f 303d 5d9d 703d 2215 7b3d
000002e0: c9bb 943d 6bee 323d 4925 ef3c 4b99 64bc
000002f0: 4eac 8abd 636f 3c3d 8087 55bd 8bc8 673d
00000300: e8cc 9e3d 7fcc 143d a1ea 9a3b c68c c33c
00000310: 8f42 803d d9a2 96bd 4b3e bb3c c7ba 4ebc
00000320: ad31 da3c 428a 41bd b897 a63c 7e8d 893d
00000330: 8259 b53c 8582 293d b47f 74bd 0c1e 893c
00000340: 6c95 5e3d 532e 773d f9ad 0c3d 7c3a f03c
00000350: d189 8c3d 31ac a53d 0f6d 8ebd efe2 00bd
00000360: 6ea0 393b a551 0fbd 2ded aabc 081a c1bc
00000370: 2769 97bd d1e0 91bd b83c 9cbc 1340 80bd
00000380: e74c 883d f0f9 b93c 68e1 82bd b195 4f3d
00000390: 8dc1 e63c 2f63 9bbd 4353 9fbd 0e31 863d
000003a0: 152d 6bbd 4c17 15bc 76cd f73b d4b0 9bbd
000003b0: ba2b 5e3c ecee ec3c 77d6 b1bb 1dfc c2bb
000003c0: 10b0 56bc 32b8 40bc fbf1 aebb af24 0e3d
000003d0: 4980 dabc 3154 43bd 3094 2f3d 1181 1fbd
000003e0: 0aa4 e0bc 5ad5 f03c 417a 993d e756 c63b
000003f0: f64c 8c3d 5041 7e3c 788b 80bd 9955 92bd

conv2.bias f4 [16]
-0.017860046 -0.016258873 0.04780494 -0.040554516 -0.029843358 0.029000845 -0.036254454 -0.015435767
-0.033645127 -0.03435915 0.07284047 0.04323128 -0.06168585 0.0042913384 -0.01306845 0.010951932
00000000: 3b4f 92bc 5431 85bc 1dcf 433d 7e1c 26bd
00000010: 0f7a f4bc 2e93 ed3c 8d7f 14bd 4de6 7cbc
00000020: 79cf 09bd 2ebc 0cbd 622d 953d 4813 313d
00000030: 4daa 7cbd 5b9e 8c3b 0d1d 56bc bb6f 333c

fc1.weight f4 [120, 400]
0.025409061 0.030561049 0.035650313 0.0013781667 -0.043647774 -0.036706436 0.0016149342 0.04067698
-0.023874646 0.00032779574 -0.042364985 0.020936746 0.02372451 0.012087393 -0.029309709 0.04754131
-0.028862352 -0.026338233 0.024201185 -0.0048734844 0.009059566 0.021873618 0.046550024 0.0046739103
-0.027245546 0.00831868 0.04600171 -0.0070631206 0.039898317 -0.045663495 -0.008228892 -0.049412753
-0.007924509 -0.039131045 0.04039521 0.03235814 -0.020885486 -0.017852569 -0.044379868 0.035489388
-0.011784357 -0.029167384 -0.024957938 0.04536419 -0.04328019 0.04439456 -0.0450601 0.04507943
-0.021266723 -0.011201304 0.0450475 0.016016161 0.013598419 -0.04286289 0.034910876 0.012149328
0.014124674 -0.042109717 0.034836955 -0.020897085 0.026760012 -0.02956344 -0.044026673 -0.02841168
0.007032186 0.049192447 0.035503853 -0.019028246 0.01036855 0.0011434614 -0.005463165 0.018674089
-0.001648879 -0.013617784 0.020872032 -0.041060753 0.034269363 -0.04496917 -0.0117583815 0.015875978
0.03982724 0.033164512 -0.040507097 0.009712833 -0.026373887 -0.008044559 0.0079282345 0.046675738
0.016571123 0.04382924 0.01981246 0.00397557 -0.038203117 -0.025904888 0.012444603 0.03128277
-0.0010177136 -0.037353326 0.040751975 0.03847583 -0.026383692 -0.03553019 0.006349999 -0.023350203
-0.0474859 -0.033362873 -0.015123761 -0.01620772 0.0007138491 0.04902811 0.03345434 0.04270323
-0.03665806 0.018780667 0.010632545 0.048671562 -0.046330538 0.044736702 0.02339226 -0.04087686
0.008379102 0.007576996 0.04864049 -0.024416048 0.031720735 -0.032106757 0.01253686 -0.024703193
0.046698358 -0.043533664 -0.005296564 0.023326058 0.022801727 -0.0028078735 -0.0014598251 -0.008608485
0.03546534 0.042814482 0.013016683 0.018006016 -0.042931017 0.01717863 0.025318015 -0.013449186
0.02886187 -0.009392023 0.0076609314 -0.007694036 0.036603957 -0.01974067 -0.009740305 -0.027140265
-0.01329425 0.025948524 -0.01720875 -0.0033514916 -0.0024312378 -0.026378542 0.041222878 0.030226594
-0.001738137 0.019450545 -0.037477028 0.022401566 -0.01579467 0.007226789 0.015669644 -0.009416157
0.01450255 -0.038957294 -0.013865012 0.024994075 -0.010784239 -0.024089789 -0.02965784 0.025379652
0.0062958063 0.025456173 -0.013732582 0.043131858 -0.049751487 -0.043884724 0.041380554 -0.023692055
0.018813992 0.0024647953 -0.008300859 0.048900057 -0.03253873 -0.04535086 0.025855202 0.034458883
-0.039461326 0.014082086 0.047074426 -0.0011566877 0.015150833 0.015155995 -0.00526858 0.03135864
-0.040040698 0.04873058 0.044169296 0.021788508 0.029221207 0.024102999 -0.0007289112 -0.012356663
0.010981482 -0.011459231 0.012703103 0.016278053 -0.036262978 0.016186077 -0.005764711 0.0035516203
-0.030437643 -0.009917778 -0.034306496 -0.036785215 -0.005608195 -0.046473183 0.0018350304 -0.034457058
-0.04498867 -0.02068302 0.0003567338 0.02389204 -0.034252208 -0.036798205 0.026183909 0.0060183886
-0.015124857 0.041816205 -0.012632305 0.0033429207 0.019332517 0.0006142199 0.010821438 -0.0135627035
0.043343056 0.047753304 -0.03653997 0.041726638 0.041829955 0.009069085 0.015774084 -0.026967913
-0.01465711 -0.004341477 0.029369218 -0.010635751 0.008051193 0.03315894 0.027269347 0.03625548
00000000: aa26 d03c 2a5b fa3c 1006 123d 9aa3 b43a
00000010: 02c8 32bd 7d59 16bd 33ac d33a e89c 263d
00000020: c394 c3bc 00dc ab39 e886 2dbd 8a83 ab3c
00000030: e759 c23c 330a 463c ea1a f0bc adba 423d
00000040: bd70 ecbc 47c3 d7bc 9041 c63c c0b1 9fbb
00000050: 936e 143c 4d30 b33c 3dab 3e3d 9a27 993b
00000060: 0d32 dfbc 134b 083c 4a6c 3c3d c071 e7bb
00000070: 6b6c 233d a509 3bbd 7ad2 06bc 0765 4abd
00000080: cdd5 01bc e047 20bd 7375 253d f889 043d
00000090: 0a18 abbc 8d3f 92bc aac7 35bd 525d 113d
000000a0: 2d13 41bc 70f0 eebc 9774 ccbc cdcf 393d
000000b0: 9246 31bd 12d7 353d f090 38bd 35a5 383d
000000c0: 8d37 aebc ad85 37bc ba83 383d 5334 833c
000000d0: e7cb 5e3c ff90 2fbd b5fe 0e3d fa0d 473c
000000e0: 2d6b 673c 3d7b 2cbd 32b1 0e3d 5d30 abbc
000000f0: d037 db3c 072f f2bc 5055 34bd 9dbf e8bc
00000100: 406e e63b 057e 493d 7d6c 113d 20e1 9bbc
00000110: dae0 293c 33e0 953a 5a04 b3bb 67fa 983c
00000120: 331f d8ba 201d 5fbc d3fb aa3c 522f 28bd
00000130: 085e 0c3d 9831 38bd 3aa6 40bc 570e 823c
00000140: e321 233d 83d7 073d c5ea 25bd 9322 1f3c
00000150: 0d0e d8bc 53cd 03bc 6de5 013c 0f2f 3f3d
00000160: 2ac0 873c 4a86 333d bd4d a23c 8045 823b
00000170: df7a 1cbd 7d36 d4bc 73e4 4b3c 5d22 003d
00000180: cd64 85ba cdff 18bd 8beb 263d d598 1d3d
00000190: 9d22 d8bc 1b88 11bd a713 d03b ed48 bfbc
000001a0: 9380 42bd 82a7 08bd a7c9 77bc 0dc6 84bc
000001b0: 9a21 3b3a b3d1 483d 6b07 093d 95e9 2e3d
000001c0: c326 16bd ead9 993c 2034 2e3c d55b 473d
000001d0: 17c5 3dbd d53d 373d 20a1 bf3c 7f6e 27bd
000001e0: 8048 093c 7348 f83b 403b 473d 2a04 c8bc
000001f0: 9aed 013d 6082 03bd 6767 4d3c 5a5e cabc
00000200: c746 3f3d 5b50 32bd cd8e adbb 4a16 bf3c
00000210: b0ca ba3c 4d04 38bb 9a57 bfba 9a0a 0dbc
00000220: 1b44 113d 3d5e 2f3d ed43 553c 5a81 933c
00000230: 6fd8 2fbd 33ba 8c3c ba67 cf3c fa59 5cbc
00000240: ba6f ec3c 00e1 19bc 8d08 fb3b 401e fcbb
00000250: 08ee 153d 30b7 a1bc cd95 1fbc 4355 debc
00000260: 20d0 59bc 0092 d43c 5df9 8cbc b3a4 5bbb
00000270: 6755 1fbb d017 d8bc 52d9 283d c39d f73c
00000280: 33d2 e3ba c056 9f3c 8381 19bd 7d83 b73c
00000290: d363 81bc b3ce ec3b a05d 803c 3a46 1abc
000002a0: 1a9c 6d3c af91 1fbd 132a 63bc 60c0 cc3c
000002b0: 60b0 30bc f357 c5bc 00f5 f2bc fde8 cf3c
000002c0: 0d4d ce3b 7789 d03c a0fe 60bc 08ab 303d
000002d0: 37c8 4bbd 78c0 33bd a87e 293d d715 c2bc
000002e0: cd1f 9a3c 6788 213b 5300 08bc 6d4b 483d
000002f0: 5547 05bd d3c1 39bd 4ace d33c c224 0d3d
00000300: 33a2 21bd 8db8 663c 1dd1 403d 009c 97ba
00000310: 333b 783c da50 783c 0da4 acbb eb71 003d
00000320: b701 24bd b799 473d ddea 343d d07d b23c
00000330: 5061 ef3c a773 c53c 6714 3fba 9a73 4abc
00000340: adeb 333c 80bf 3bbc ad20 503c 8d59 853c
00000350: 7d88 14bd aa98 843c e7e5 bcbb 4dc2 683b
00000360: 5d58 f9bc 2d7e 22bc f884 0cbd 18ac 16bd
00000370: f3c4 b7bb aa5a 3ebd 6785 f03a d822 0dbd
00000380: 0a46 38bd 706f a9bc 0008 bb39 3db9 c33c
00000390: 0b4c 0cbd b7b9 16bd a37f d63c e735 c53b
000003a0: 40ce 77bc 7847 2b3d baf7 4ebc e714 5b3b
000003b0: 3a5f 9e3c 9a03 213a 674c 313c 1a36 5ebc
000003c0: 7d88 313d f898 433d f0aa 15bd 8de9 2a3d
000003d0: e355 2b3d 8096 143c a738 813c d0eb dcbc
000003e0: 6024 70bc f342 8ebb b797 f03c 9341 2ebc
000003f0: 27e9 033c abd1 073d f763 df3c a080 143d

fc1.bias f4 [120]
0.03227591 -0.022379989 0.0062270104 0.03848598 0.00022266507 -0.010838145 -0.016175956 0.0041579246
-0.023103034 0.02358116 -0.0068453373 -0.03143512 -0.02906099 0.045045167 0.041727364 -0.027719064
-0.04287521 0.010518289 0.016180629 0.0053043547 0.0015005171 -0.023618245 -0.014755005 0.02936036
-0.023558939 -0.0064230384 -0.0050006094 0.041963495 0.008045656 -0.042318325 0.011705107 0.043446362
-0.0011045277 -0.040824175 0.043837804 -0.039357107 -0.012757641 0.0138214 0.038779717 0.024863815
-0.04870979 0.004424751 0.04875955 -0.01486702 -0.018391162 0.020979976 -0.013053191 0.03461048
-0.0017720879 -0.030187314 0.031231457 0.037720617 0.0463033 0.021830654 -0.041550558 -0.029806614
-0.047112167 -0.036023498 0.042351067 -0.04473085 -0.01768279 0.031331267 0.01055705 -0.011736238
0.014061189 0.038673967 0.009513485 0.01969232 -0.008796913 0.0048002126 -0.00025370717 -0.0394252
0.041465987 -0.037334662 -0.00978939 -0.027018327 -0.019512702 0.049567994 -0.02494672 -0.0024844527
-0.031624306 -0.03553171 0.024907732 -0.04074039 0.040372696 -0.037320394 -0.018504446 0.02627917
-0.03815169 -0.014527607 0.007825094 0.01676771 -0.011856812 0.026410867 -0.014952975 -0.005242181
-0.049531914 0.032574285 -0.009511548 0.022894848 0.019516164 0.02117225 0.021141041 0.032352675
-0.035703737 -0.04674229 -0.023765028 0.030699825 0.018388981 -0.02656557 -0.027271444 -0.0025252402
0.039834835 -0.03673261 0.01989146 0.003529203 0.027640058 0.016694313 -0.043659564 0.037613668
00000000: bf33 043d 3d56 b7bc f30b cc3b 7aa3 1d3d
00000010: 337b 6939 7a92 31bc 7083 84bc 333f 883b
00000020: 9342 bdbc 472d c13c da4e e0bb 1dc2 00bd
00000030: 5011 eebc 4881 383d 50ea 2a3d 1713 e3bc
00000040: eb9d 2fbd e754 2c3c 3d8d 843c 27d0 ad3b
00000050: 00ad c43a 0d7b c1bc fabe 71bc 2385 f03c
00000060: adfe c0bc 5a78 d2bb 27dc a3bb eae1 2b3d
00000070: edd1 033c fb55 2dbd c7c6 3f3c d0f4 313d
00000080: cdc5 90ba 4037 27bd 458f 333d eb34 21bd
00000090: 6d05 51bc 2773 623c 7bd7 1e3d 33af cb3c
000000a0: eb83 47bd 80fd 903b 18b8 473d cd94 73bc
000000b0: 10a9 96bc 33de ab3c 0ddd 55bc b8c3 0d3d
000000c0: 6745 e8ba 634b f7bc 1dd9 ff3c ef80 1a3d
000000d0: 87a8 3d3d 33d6 b23c eb30 2abd 002d f4bc
000000e0: b0f8 40bd 608d 13bd 5078 2d3d b237 37bd
000000f0: 80db 90bc 3755 003d 7af7 2c3c 5a49 40bc
00000100: e760 663c 9868 1e3d 73de 1b3c ca51 a13c
00000110: ed20 10bc 1a4b 9d3b 0004 85b9 527c 21bd
00000120: 3dd8 293d 3bec 18bd ad63 20bc 8a55 ddbc
00000130: 1ad9 9fbc cf07 4b3d 105d ccbc 33d2 22bb
00000140: 7d88 01bd b389 11bd 4d0b cc3c 65df 26bd
00000150: d75d 253d 45dd 18bd a396 97bc 6a47 d73c
00000160: f244 1cbd 3305 6ebc d334 003c 705c 893c
00000170: 1343 42bc 9a5b d83c 53fd 74bc 9ac6 abbb
00000180: fae1 4abd 9d6c 053d 53d6 1bbc fa8d bb3c
00000190: 5de0 9f3c 6d71 ad3c fa2f ad3c 3d84 043d
000001a0: 153e 12bd d874 3fbd e0ae c2bc 337e fb3c
000001b0: 7da4 963c 0aa0 d9bc 5d68 dfbc 807e 25bb
000001c0: da29 233d ef74 16bd 6af3 a23c 334a 673b
000001d0: 676d e23c 83c2 883c 5fd4 32bd ca10 1a3d

fc2.weight f4 [84, 120]
0.058285315 -0.07932159 0.015171864 -0.01782086 0.08073743 -0.06847903 -0.06558095 -0.022957595
-0.011993991 -0.057109486 0.03899538 0.069192745 0.0450815 -0.022220777 -0.048438296 -0.06105837
-0.069617085 0.030058004 0.058168363 0.03608296 -0.040276017 0.00452586 0.04386005 -0.021929579
-0.081907436 0.088037185 -0.048681974 -0.05166551 -0.025628267 -0.07097287 0.019098578 0.035954606
-0.07752735 0.022958986 -0.04237818 0.014394946 0.078388885 -0.034455474 -0.080354534 -0.02474183
-0.031430475 -0.060869593 -1.9827494e-05 -0.052823916 0.03344648 0.046008896 -0.026213253 -0.05550296
-0.07110917 -0.07626785 -0.06264973 0.06895138 0.0891017 -0.07300184 0.0659676 0.048429843
0.0316866 0.015287129 -0.026185917 -0.037183233 -0.0810884 0.012442732 -0.06260186 0.07766752
0.04274451 -0.085968316 -0.06248365 0.051975667 0.05386644 -0.03558392 -0.056928635 0.0498811
-0.04909055 -0.015468983 -0.08000198 0.0063716667 0.013113537 -0.013303857 -0.037433635 0.025078407
-0.05796542 -0.04146692 0.06787393 0.019175407 0.08420875 0.021882448 0.07757649 0.018512275
0.022116069 0.04663713 -0.039914172 -0.0851531 -0.049485616 -0.018067114 0.047804516 0.08435851
0.06829515 0.066903636 0.08909732 0.053495638 0.04664872 -0.064681716 -0.056230176 -0.08632375
-0.0236189 0.04379454 0.05973626 0.059539955 -0.058140688 -0.045441747 -0.0061590164 0.055360194
-0.042877752 -0.012853658 0.043358922 -0.03208525 -0.08806211 0.013517215 -0.057874706 0.044055942
-0.0024478794 0.03821063 0.0038843171 0.011202719 -0.027152067 0.04683426 0.040108386 0.024900418
-0.022652041 -0.08227395 0.017800966 -0.014223768 -0.044656623 -0.08326921 0.067636244 0.03314863
-0.028751282 0.07351025 0.024920821 0.07021574 0.036506105 0.024178367 -0.08094056 -0.017960738
0.0034691151 -0.028331455 0.07501749 0.00938944 0.07807267 -0.08957461 -0.08190153 -0.02775982
0.08104089 0.022815939 -0.026888162 -0.0032178217 0.07755726 0.017386546 0.040460866 -0.07747393
-0.00986 -0.033637628 -0.06783571 0.071580075 -0.041645736 -0.07087708 0.0030321812 0.04517784
0.015783219 -0.08170924 0.08329512 -0.050192084 -0.069959074 0.002188272 -0.031280722 0.034200307
-0.034775108 -0.07079605 0.05177672 -0.038411256 -0.021303728 0.065610625 -0.082812004 0.018822985
0.08820198 -0.06637494 0.05821655 0.017507123 -0.0076051066 0.037573025 0.012271859 0.050548106
0.07923381 -0.07614165 0.030394461 0.01423254 -0.019266687 -0.07760071 0.008865295 -0.05001022
-0.055952277 0.047282297 0.022391466 0.040115386 -0.07583733 0.083522275 -0.022030044 -0.058966108
-0.027723832 0.03396577 -0.03508868 0.09023219 -0.04084709 -0.047418542 0.019046191 0.082338385
-0.07238421 -0.057824604 -0.06747597 -0.055704072 -0.02552138 -0.09041393 -0.05210485 -0.057123393
0.034769733 -0.08794362 0.01632904 0.062136963 0.06833473 0.012846041 -0.022256667 0.030535985
0.068190545 -0.050989777 -0.09071053 0.014689116 -0.076699674 -0.016493255 -0.028831974 0.02668019
0.034153502 -0.010964278 0.062687136 0.053193673 -0.03106778 -0.060792416 -0.046236258 0.085542746
-0.042287715 0.018652363 0.075027935 -0.04329388 0.008024694 0.043182936 5.3105473e-06 0.025436772
00000000: 95bc 6e3d 5c73 a2bd 6993 783c 0dfd 91bc
00000010: aa59 a53d bc3e 8cbd 4e4f 86bd 9111 bcbc
00000020: 7282 44bc a3eb 69bd 9fb9 1f3d edb4 8d3d
00000030: 61a7 383d 5908 b6bc 3c67 46bd 5718 7abd
00000040: 6793 8ebd 343c f63c f341 6e3d bacb 133d
00000050: 77f8 24bd aa4d 943b 99a6 333d a9a5 b3bc
00000060: 16bf a7bd d74c b43d c066 47bd 379f 53bd
00000070: 5ff2 d1bc 395a 91bd 9f74 9c3c 2345 133d
00000080: a9c6 9ebd 7c14 bc3c be94 2dbd c8d8 6b3c
00000090: 5a8a a03d 2f21 0dbd eb90 a4bd 61af cabc
000000a0: 3ebd 00bd 6552 79bd 3853 a6b7 e45d 58bd
000000b0: 2dff 083d d373 3c3d 2dbd d6bc 1257 63bd
000000c0: afa1 91bd 5232 9cbd 804e 80bd 6236 8d3d
000000d0: f47a b63d fd81 95bd 051a 873d 5f5e 463d
000000e0: cfc9 013d de76 7a3c d983 d6bc 724d 18bd
000000f0: ad11 a6bd 9adc 4b3c 6735 80bd 2610 9f3d
00000100: de14 2f3d 2810 b0bd dbee 7fbd 70e4 543d
00000110: 0ea3 5c3d 72c0 11bd 002e 69bd 2050 4c3d
00000120: 2c13 49bd 9e71 7dbc 14d8 a3bd 6ac9 d03b
00000130: 29da 563c 6cf8 59bc 0354 19bd 3b71 cd3c
00000140: 266d 6dbd 38d9 29bd 7d01 8b3d be15 9d3c
00000150: a375 ac3d d242 b33c 6ce0 9e3d 0ea7 973c
00000160: c22c b53c 9306 3f3d 0b7d 23bd c064 aebd
00000170: 6eb1 4abd 7c01 94bc abce 433d 28c4 ac3d
00000180: 54de 8b3d c604 893d a878 b63d 3e1e 5b3d
00000190: ba12 3f3d d977 84bd 9d51 66bd 82ca b0bd
000001a0: 6c7c c1bc e761 333d 02ae 743d 2be0 733d
000001b0: ee24 6ebd 2021 3abd 93d1 c9bb 5fc1 623d
000001c0: 95a0 2fbd 2698 52bc 2099 313d d36b 03bd
000001d0: e859 b4bd 4f77 5d3c 070e 6dbd 0174 343d
000001e0: 9a6c 20bb c082 1c3d 0790 7e3b 9c8b 373c
000001f0: 036e debc 48d5 3f3d b148 243d f6fb cb3c
00000200: c690 b9bc 3f7f a8bd 55d3 913c cf0a 69bc
00000210: dde9 36bd 0c89 aabd df84 8a3d dcc6 073d
00000220: cf87 ebbc 8b8c 963d c026 cc3c 45cd 8f3d
00000230: 6d87 153d b611 c63c 2ac4 a5bd 6622 93bc
00000240: 185a 633b 5e17 e8bc c5a2 993d 2ad6 193c
00000250: 90e4 9f3d e572 b7bd fdbb a7bd 9068 e3bc
00000260: c4f8 a53d 7ee8 ba3c 9044 dcbc 17e2 52bb
00000270: 57d6 9e3d 3b6e 8e3c 4bba 253d a7aa 9ebd
00000280: d68b 21bc 9cc7 09bd 73ed 8abd 9398 923d
00000290: b894 2abd 0128 91bd 8fb7 463b 660c 393d
000002a0: cf4b 813c 2d57 a7bd a296 aa3d 3796 4dbd
000002b0: b446 8fbd 1d69 0f3b 3720 00bd 9f15 0c3d
000002c0: 5870 0ebd 85fd 90bd d313 543d 1f55 1dbd
000002d0: 2885 aebc dd5e 863d 5799 a9bd a932 9a3c
000002e0: 3da3 b43d 96ef 87bd 7a74 6e3d 196b 8f3c
000002f0: 4234 f9bb 2ce6 193d e80f 493c 880b 4f3d
00000300: 5645 a23d 27f0 9bbd cefd f83c 992f 693c
00000310: 2cd5 9dbc 1fed 9ebd be3f 113c 84d7 4cbd
00000320: 372e 65bd 15ab 413d 4f6e b73c 0850 243d
00000330: 9a50 9bbd ba0d ab3d 5a78 b4bc 7286 71bd
00000340: 171d e3bc b11f 0b3d 26b9 0fbd a8cb b83d
00000350: 474f 27bd f239 42bd c206 9c3c 07a1 a83d
00000360: 2c3e 94bd 7ed9 6cbd d730 8abd f429 64bd
00000370: 3712 d1bc f02a b9bd e56b 55bd 38fa 69bd
00000380: b56a 0e3d c91b b4bd 7bc4 853c 5483 7e3d
00000390: 14f3 8b3d 3378 523c 9d53 b6bc 9a26 fa3c
000003a0: 7ca7 8b3d a8da 50bd 71c6 b9bd 9eaa 703c
000003b0: b814 9dbd dd1c 87bc 0831 ecbc 6a90 da3c
000003c0: 8be4 0b3d 84a3 33bc 1d62 803d 9ce1 593d
000003d0: db81 febc 7801 79bd 3b62 3dbd 0931 af3d
000003e0: e235 2dbd d7cc 983c 3fa8 993d ec54 31bd
000003f0: 027a 033c 97e0 303d 4131 b236 c760 d03c

fc2.bias f4 [84]
0.0292714 0.07121662 -0.061590433 0.09011727 -0.06426555 0.059626292 -0.08166844 0.048864894
-0.06765064 -0.06141102 -0.035284933 0.04533736 -0.07389121 0.08575792 -0.056267958 0.038629435
-0.008179995 -0.055264235 0.056881707 -0.058293205 -0.075910404 0.06529801 0.07518985 -0.08291225
0.051040858 0.0031961226 0.058438145 -0.030052148 -0.052225295 -0.027123414 0.007952011 0.017678931
-0.014819072 -0.01625711 -0.046409745 0.08901702 0.02518512 0.04578708 -0.012210668 0.058363285
0.015847087 0.036441073 -0.031099131 0.053944573 0.013162159 -0.031245193 -0.030739756 -0.017406777
-0.041123606 0.07132654 -0.041847363 0.054392446 -0.015168185 0.035983387 0.08874293 0.033891164
-0.064542 0.07531382 0.032763563 0.053185545 0.027819738 -0.021205397 -0.07650661 0.019519286
0.08595276 0.00764795 0.028734414 0.07201666 0.06586359 -0.003745884 -0.065943584 0.0027632476
0.0051332316 -0.053749572 0.0723147 0.014447029 0.052844834 0.02918554 -0.027326956 -0.021840977
-0.09067802 -0.056915693 -0.048478495 -0.026687687
00000000: 93ca ef3c 05da 913d 4046 7cbd 678f b83d
00000010: a89d 83bd b33a 743d c841 a7bd 8e26 483d
00000020: 6b8c 8abd 1f8a 7bbd ef86 10bd abb3 393d
00000030: 4654 97bd d9a1 af3d 3b79 66bd e639 1e3d
00000040: 6305 06bc c05c 62bd cbfc 683d dbc4 6ebd
00000050: ea76 9bbd f7ba 853d 23fd 993d e6cd a9bd
00000060: 3810 513d 0a76 513b d65c 6f3d ec2f f6bc
00000070: 31ea 55bd ec31 debc 2749 023c 68d3 903c
00000080: b1cb 72bc a12d 85bc 2518 3ebd 8e4e b63d
00000090: 0651 ce3c 3c8b 3b3d 410f 48bc 570e 6f3d
000000a0: c0d1 813c 3c43 153d 9bc3 febc fcf4 5c3d
000000b0: 19a6 573c ebf5 ffbc f1d1 fbbc a898 8ebc
000000c0: 3a71 28bd a613 923d 2468 2bbd 9dca 5e3d
000000d0: fb83 78bc 5163 133d dabe b53d 76d1 0a3d
000000e0: 992e 84bd 223e 9a3d 1633 063d 16d9 593d
000000f0: 38e6 e33c f1b6 adbc 7faf 9cbd e9e6 9f3c
00000100: 0008 b03d a89b fa3b 6f64 eb3c 787d 933d
00000110: 7de3 863d 817d 75bb 6e0d 87bd 9a17 353b
00000120: ab34 a83b 8328 5cbd bb19 943d 3bb3 6c3c
00000130: d373 583d 8316 ef3c c8dc dfbc d9eb b2bc
00000140: 66b5 b9bd 6e20 69bd 6391 46bd 23a0 dabc

fc3.weight f4 [10, 84]
-0.01723007 -0.050776143 0.022030476 0.07689616 0.07931552 -0.00863766 -0.04707413 -0.039516114
-0.033518888 -0.093234316 -0.060591385 0.030250786 0.00031957708 -0.039251596 0.031219117 -0.058447033
0.008142764 0.071597636 -0.06687103 0.017389884 0.051872134 -0.1051323 0.041972253 0.022603309
-0.019256437 0.10093416 -0.004659478 -0.03537103 -0.0639243 -0.062007785 0.06095261 0.05263667
-0.0056928685 -0.09348951 0.03781159 -0.0001782582 0.0061578746 0.0453737 0.057653423 -0.012355588
0.08428409 -0.042901225 -0.101599455 0.07600097 -0.08835371 0.060344152 0.104696676 -0.04270494
0.04338785 -0.0043178415 -0.062175848 -0.021414787 0.046840608 0.03847911 0.08453003 -0.038617358
0.09393949 0.058571804 0.090651 0.07999502 -0.03569355 0.10150422 0.088888615 0.04375606
0.057379577 0.0011914099 -0.08337321 -0.08701508 -0.012093814 -0.09155376 0.018288875 -0.10256047
0.0462986 0.03022679 -0.059880096 0.091683686 -0.09560695 -0.10909672 -0.087288715 0.029887559
-0.040474858 0.0063366788 -0.04197868 -0.029272467 -0.035273142 0.10059139 -0.09723266 -0.07379508
0.0505033 0.10878253 0.081841856 0.03887597 -0.044607863 -0.02720553 -0.10455153 -0.070819594
0.023667082 -0.031213498 0.050466515 0.10276408 0.0022171002 -0.050392766 -0.06749061 0.040963914
0.07328852 -0.08638551 0.088104226 -0.008503547 0.07850818 -0.042284198 -0.018164659 0.026225325
0.043440763 -0.017022831 -0.03378908 -0.0685811 0.10101237 -0.05524948 0.10063079 0.07805974
0.06301023 0.036352407 -0.099019 -0.09435358 0.06809783 0.03275293 0.08308334 0.06454228
0.050213207 0.03449307 -0.046886276 -0.044268943 -0.035575602 0.08053571 0.016396306 -0.06026849
0.034664385 -0.05585393 -0.03046225 0.02491874 -0.03699718 -0.035910096 -0.05280662 0.01274202
0.014785181 0.00050141214 0.05316033 -0.05499889 0.008306416 -0.010736307 0.07904836 -0.039321937
0.10545804 -0.10470233 0.09108042 -0.08130184 0.10533611 0.0023214926 -0.05916329 0.09984955
0.04545918 0.01770072 0.093042076 -0.10300659 -0.057696655 -0.06616394 -0.008653658 0.00076139206
-0.052028242 -0.0009359563 -0.016173344 -0.06952127 0.066723205 -0.09068958 0.021545699 -0.0854231
0.0805667 -0.041416045 0.07992229 -0.018957399 0.060020268 0.018592492 -0.10658862 0.017098218
-0.07118549 -0.020014746 -0.011917506 0.07548475 -0.03300863 0.029239248 0.08363876 0.073591776
0.029972468 0.07131397 0.01825412 -0.06548774 0.09626382 0.0802261 0.07361372 0.086037226
-0.048143916 0.08662516 0.061191622 0.06734937 0.0014232431 -0.008506135 -0.029592162 0.099239975
0.038721763 -0.10009761 0.07198461 -0.07992424 -0.052470565 0.029335186 0.04860155 -0.035270877
-0.02061687 0.00618433 0.0730066 0.044729605 -0.048667334 -0.038312465 0.08384927 -0.041454
-0.09683914 0.011358904 0.045740962 -0.08902145 -0.024977453 0.08129354 0.08229071 0.028346512
0.093786575 0.06661589 -0.08019578 0.08042879 0.10499857 -0.040343974 0.020151604 -0.044177428
-0.070424385 0.07694468 0.0775166 -0.03810497 -0.031572174 -0.09745229 -0.017776718 -0.10620566
-0.054733604 -0.029454654 0.00907024 -0.030660305 -0.098322384 0.07534346 0.06200175 -0.056420222
00000000: 1326 8dbc a5fa 4fbd 4279 b43c bc7b 9d3d
00000010: 2d70 a23d f984 0dbc ced0 40bd a6db 21bd
00000020: 1a4b 09bd a2f1 bebd ac2e 78bd 7fd0 f73c
00000030: e98c a739 48c6 20bd 3cbf ff3c 2866 6fbd
00000040: 3a69 053c c8a1 923d aef3 88bd 3b75 8e3c
00000050: e077 543d 9a4f d7bd 19eb 2b3d 932a b93c
00000060: adbf 9dbc 92b6 ce3d 89ae 98bb 37e1 10bd
00000070: beea 82bd e0fb 7dbd 72a9 793d 8d99 573d
00000080: 3e8b babb 6e77 bfbd 53e0 1a3d d2ea 3ab9
00000090: ffc7 c93b c6d9 393d ff25 6c3d 186f 4abc
000000a0: 239d ac3d 32b9 2fbd 6013 d0bd 66a6 9b3d
000000b0: caf2 b4bd 6e2b 773d 366b d63d 60eb 2ebd
000000c0: 75b7 313d ae7c 8dbb 1aac 7ebd 106e afbc
000000d0: f0db 3f3d 459c 1d3d 151e ad3d 3c2d 1ebd
000000e0: 5963 c03d fde8 6f3d 3ba7 b93d 6ed4 a33d
000000f0: 6633 12bd 72e1 cf3d 3c0b b63d 8e39 333d
00000100: d906 6b3d 1529 9c3a 93bf aabd f634 b2bd
00000110: 2225 46bc 8a80 bbbd 8dd2 953c 390b d2bd
00000120: 9aa3 3d3d 2c9e f73c d544 75bd a8c4 bb3d
00000130: 94cd c3bd 1a6e dfbd 6dc4 b2bd c1d6 f43c
00000140: f7c8 25bd eaa3 cf3b d6f1 2bbd d0cc efbc
00000150: 927a 10bd dc02 ce3d eb21 c7bd e021 97bd
00000160: 8cdc 4e3d 60c9 de3d b49c a73d 693c 1f3d
00000170: bcb6 36bd 22de debc 1d1f d6bd dd09 91bd
00000180: 78e1 c13c 73b3 ffbc fab5 4e3d f975 d23d
00000190: c54c 113b a568 4ebd 8438 8abd c7c9 273d
000001a0: 4b18 963d e3ea b0bd fd6f b43d 7652 0bbc
000001b0: e6c8 a03d 3232 2dbd 0dce 94bc 7ed6 d63c
000001c0: f1ee 313d 7773 8bbc 6b66 0abd 3f74 8cbd
000001d0: 93df ce3d 474d 62bd 8417 ce3d c9dd 9f3d
000001e0: 820b 813d 43e6 143d 79ca cabd 733c c1bd
000001f0: e076 8b3d f027 063d 9927 aa3d be2e 843d
00000200: 5dac 4d3d 9b48 0d3d d30b 40bd 5a53 35bd
00000210: b9b7 11bd e8ef a43d 8c51 863c 18dc 76bd
00000220: 3efc 0d3d 17c7 64bd f88b f9bc 6322 cc3c
00000230: 5b8a 17bd 7716 13bd c14b 58bd e8c3 503c
00000240: 8b3d 723c 3371 033a a5be 593d 8446 61bd
00000250: a217 083c 56e7 2fbc 1be4 a13d 0a10 21bd
00000260: 63fa d73d 2d6e d6bd 5f88 ba3d 9481 a6bd
00000270: 75ba d73d 2f24 183b 3555 72bd ec7d cc3d
00000280: 6833 3a3d 1a01 913c d88c be3d 1ef5 d2bd
00000290: 5453 6cbd f680 87bd 13c8 0dbc 2898 473a
000002a0: 911b 55bd f75a 75ba f67d 84bc 2b61 8ebd
000002b0: 2da6 883d 75bb b9bd 9b80 b03c 4ef2 aebd
000002c0: 2700 a53d dfa3 29bd 4cae a33d 8c4c 9bbc
000002d0: d0d7 753d 484f 983c 224b dabd 9011 8c3c
000002e0: b3c9 91bd f7f5 a3bc a541 43bc c097 9a3d
000002f0: 0f34 07bd 2687 ef3c cc4a ab3d 49b7 963d
00000300: d288 f53c 0f0d 923d aa89 953c 701e 86bd
00000310: f725 c53d 954d a43d cac2 963d 4934 b03d
00000320: 8e32 45bd 8868 b13d 11a4 7a3d 77ee 893d
00000330: 1d8c ba3a 515d 0bbc 436b f2bc 543e cb3d
00000340: b69a 1e3d faff ccbd ab6c 933d 52af a3bd
00000350: 60eb 56bd 5850 f03c 6b12 473d 3278 10bd
00000360: b6e4 a8bc eca5 ca3b 7c84 953d 6436 373d
00000370: 6657 47bd 88ed 1cbd 2bb9 ab3d abcb 29bd
00000380: 9953 c6bd b21a 3a3c e05a 3b3d e150 b6bd
00000390: 849d ccbc 3a7d a63d 0888 a83d f236 e83c
000003a0: 2d13 c03d e96d 883d af3d a4bd d9b7 a43d
000003b0: 7e09 d73d b93f 25bd fa14 a53c 64f3 34bd
000003c0: a93a 90bd 2c95 9d3d 06c1 9e3d f513 1cbd
000003d0: d351 01bd 1195 c7bd 7ba0 91bc 5a82 d9bd
000003e0: 5830 60bd e34a f1bc 589b 143c 522b fbbc
000003f0: 3f5d c9bd ac4d 9a3d 8cf5 7d3d e418 67bd

fc3.bias f4 [10]
-0.1047352 -0.043528493 -0.08862697 0.07163848 0.081947744 0.08758902 0.06116873 -0.10681366
0.065599225 0.07344158
00000000: 697f d6bd ef4a 32bd 0f82 b5bd 32b7 923d
00000010: 38d4 a73d df61 b33d 108c 7a3d 1fc1 dabd
00000020: e358 863d 8a68 963d
